Model: "functional_1"
+--------------------------------------------------------------------------+
| Layer (type)                    | Output Shape           |       Param # |
|---------------------------------+------------------------+---------------|
| input_layer_1 (InputLayer)      | (None, 224, 224, 3)    |             0 |
|---------------------------------+------------------------+---------------|
| augmentation (Sequential)       | (None, 224, 224, 3)    |             0 |
|---------------------------------+------------------------+---------------|
| true_divide (TrueDivide)        | (None, 224, 224, 3)    |             0 |
|---------------------------------+------------------------+---------------|
| subtract (Subtract)             | (None, 224, 224, 3)    |             0 |
|---------------------------------+------------------------+---------------|
| mobilenetv2_1.00_224            | (None, 7, 7, 1280)     |     2,257,984 |
| (Functional)                    |                        |               |
|---------------------------------+------------------------+---------------|
| global_average_pooling2d        | (None, 1280)           |             0 |
| (GlobalAveragePooling2D)        |                        |               |
|---------------------------------+------------------------+---------------|
| dropout (Dropout)               | (None, 1280)           |             0 |
|---------------------------------+------------------------+---------------|
| dense (Dense)                   | (None, 5)              |         6,405 |
+--------------------------------------------------------------------------+
 Total params: 5,330,001 (20.33 MB)
 Trainable params: 1,532,805 (5.85 MB)
 Non-trainable params: 731,584 (2.79 MB)
 Optimizer params: 3,065,612 (11.69 MB)

